…
__________________________</span><br><span class="line">Layer (type)                 Output Shape              Param #   </span><br><span class="line">&#x3D;&#x3D;&#x3D;&#x3D;&#x3D;&#x3D;&#x3D;&#x3D;&#x3D;&#x3D;&#x3D;&#x3D;&#x3D;&#x3D;&#x3D;&#x3D;&#x3D;&#x3D;&#x3D;&#x3D;&#x3D;&#x3D;&#x3D;&#x3D;&#x3D;&#x3D;&#x3D;&#x3D;&#x3D;&#x3D;&#x3D;&#x3D;&#x3D;&#x3D;&#x3D;&#x3D;&#x3D;&#x3D;&#x3D;&#x3D;&#x3D;&#x3D;&#x3D;&#x3D;&#x3D;&#x3D;&#x3D;&#x3D;&#x3D;&#x3D;&#x3D;&#x3D;&#x3D;&#x3D;&#x3D;&#x3D;&#x3D;&#x3D;&#x3D;&#x3D;&#x3D;&#x3D;&#x3D;&#x3D;&#x3D;</span><br><span class="line">input_1 (InputLayer)         (None, 64, 64, 3)         0         </span><br><span class="line">_________________________________________________________________</span><br><span class="line">zero_padding2d_1 (ZeroPaddin (None, 66, 66, 3)         0         </span><br><span class="line">_________________________________________________________________</span><br><span class="line">conv2d_1 (Conv2D)            (None, 64, 64, 8)         224       </span><br><span class="line">_________________________________________________________________</span><br><span class="line">batch_normalization_1 (Batch (None, 64, 64, 8)         32        </span><br><span class="line">_________________________________________________________________</span><br><span class="line">activation_1 (Activation)    (None, 64, 64, 8)         0         </span><br><span class="line">_________________________________________________________________</span><br><span class="line">max_pooling2d_1 (MaxPooling2 (None, 32, 32, 8)         0         </span><br><span class="line">_________________________________________________________________</span><br><span class="line">zero_padding2d_2 (ZeroPaddin (None, 34, 34, 8)         0         </span><br><span class="line">_________________________________________________________________</span><br><span class="line">conv2d_2 (Conv2D)            (None, 32, 32, 16)        1168      </span><br><span class="line">_________________________________________________________________</span><br><span class="line">batch_normalization_2 (Batch (None, 32, 32, 16)        64        </span><br><span class="line">_________________________________________________________________</span><br><span class="line">activation_2 (Activation)    (None, 32, 32, 16)        0         </span><br><span class="line">_________________________________________________________________</span><br><span class="line">max_pooling2d_2 (MaxPooling2 (None, 16, 16, 16)        0         </span><br><span class="line">_________________________________________________________________</span><br><span class="line">zero_padding2d_3 (ZeroPaddin (None, 18, 18, 16)        0         </span><br><span class="line">_________________________________________________________________</span><br><span class="line">conv2d_3 (Conv2D)            (None, 16, 16, 32)        4640      </span><br><span class="line">_________________________________________________________________</span><br><span class="line">batch_normalization_3 (Batch (None, 16, 16, 32)        128       </span><br><span class="line">_________________________________________________________________</span><br><span class="line">activation_3 (Activation)    (None, 16, 16, 32)        0         </span><br><span class="line">_________________________________________________________________</span><br><span class="line">max_pooling2d_3 (MaxPooling2 (None, 8, 8, 32)          0         </span><br><span class="line">_________________________________________________________________</span><br><span class="line">flatten_1 (Flatten)          (None, 2048)              0         </span><br><span class="line">_________________________________________________________________</span><br><span class="line">dense_1 (Dense)              (None, 1)                 2049      </span><br><span class="line">&#x3D;&#x3D;&#x3D;&#x3D;&#x3D;&#x3D;&#x3D;&#x3D;&#x3D;&#x3D;&#x3D;&#x3D;&#x3D;&#x3D;&#x3D;&#x3D;&#x3D;&#x3D;&#x3D;&#x3D;&#x3D;&#x3D;&#x3D;&#x3D;&#x3D;&#x3D;&#x3D;&#x3D;&#x3D;&#x3D;&#x3D;&#x3D;&#x3D;&#x3D;&#x3D;&#x3D;&#x3D;&#x3D;&#x3D;&#x3D;&#x3D;&#x3D;&#x3D;&#x3D;&#x3D;&#x3D;&#x3D;&#x3D;&#x3D;&#x3D;&#x3D;&#x3D;&#x3D;&#x3D;&#x3D;&#x3D;&#x3D;&#x3D;&#x3D;&#x3D;&#x3
…
